example/torch_data/flip_flop_net_6.pt (torch, 57751 bytes, 6 tensors)

weight_ih_l0 f4 [8, 3]
-0.037598945 -2.5626087 0.045761596 -2.530481 -0.035091266 0.033730824 -0.8325716 -0.055005036
0.054597262 -0.036486577 -0.023526235 4.260102 0.13746804 -0.049773127 0.021087397 3.6657174
0.032387022 -0.029989764 -0.041764513 -3.9631402 0.03930429 -0.1638202 -0.08399596 0.2783134
00000000: 5a01 1abd c801 24c0 8370 3b3d 67f3 21c0
00000010: dcbb 0fbd 5529 0a3d 6a23 55bf f64c 61bd
00000020: 61a1 5f3d f372 15bd 17ba c0bc c152 8840
00000030: 6cc4 0c3e e8de 4bbd 7abf ac3c 1d9b 6a40
00000040: 41a8 043d 18ad f5bc 4411 2bbd 17a4 7dc0
00000050: 89fd 203d 7cc0 27be 1306 acbd 187f 8e3e

weight_hh_l0 f4 [8, 8]
0.5767732 -0.08266286 0.033630576 0.04263065 -0.3446616 -0.08364463 0.8181527 -0.21243651
-0.3346071 -0.047598265 0.043349445 0.024479186 0.14034998 -1.2363193 0.32205433 -0.08698691
0.08642542 -0.3525937 0.24780038 0.04518953 0.035773054 -0.54442614 -0.052548315 -0.1828827
0.3255107 0.3177161 0.02419677 2.0938804 0.37336573 0.2657438 -0.27744967 -0.26159075
0.3597933 -0.37770444 -0.00037900612 -0.09695943 0.53471583 -0.24849483 -0.38783577 0.4112196
0.060451884 -0.71454173 0.24053822 -0.030916266 0.25173366 1.2734908 -0.07474855 0.1070918
0.7539903 0.054608807 0.031041669 0.052397925 0.30818695 0.031187458 1.3747604 -0.28467703
0.14196078 -0.14676382 0.08299712 0.094216265 0.009992821 -0.15397485 -0.08629866 -0.052157473
00000000: 69a7 133f 254b a9bd 37c0 093d 7a9d 2e3d
00000010: 7c77 b0be e04d abbd 7572 513f f588 59be
00000020: 9f51 abbe 66f6 42bd 308f 313d 9388 c83c
00000030: e8b7 0f3e b63f 9ebf 4ee4 a43e 3126 b2bd
00000040: d0ff b03d 2987 b4be 62bf 7d3e a818 393d
00000050: c486 123d 835f 0bbf e73c 57bd 9a45 3bbe
00000060: 57a9 a63e afab a23e 4e38 c63c 2302 0640
00000070: cb29 bf3e 920f 883e e20d 8ebe 39ef 85be
00000080: d436 b83e 7a62 c1be 57b5 c6b9 aa92 c6bd
00000090: 23e3 083f 6e75 7ebe 6992 c6be 608b d23e
000000a0: 659c 773d 35ec 36bf a74f 763e 1c44 fdbc
000000b0: 3ce3 803e bf01 a33f c515 99bd f252 db3d
000000c0: 8205 413f 7cad 5f3d 194b fe3c 359f 563d
000000d0: aeca 9d3e d77c ff3c 26f8 af3f 30c1 91be
000000e0: 2b5e 113e 4149 16be 65fa a93d 75f4 c03d
000000f0: eeb8 233c 95ab 1dbe 5abd b0bd 13a3 55bd

bias_ih_l0 f4 [8]
0.26743174 -0.007747538 0.13481292 -0.14384265 0.9114993 -0.33040875 -0.22547604 -0.004253471
00000000: d0ec 883e 0fdf fdbb 660c 0a3e 7d4b 13be
00000010: 0558 693f 562b a9be 31e3 66be b360 8bbb

bias_hh_l0 f4 [8]
0.06738393 -0.12666266 -0.16784553 -0.21984124 0.78256804 0.08332461 -0.07599048 -0.004696538
00000000: 9600 8a3d dbb3 01be b3df 2bbe 101e 61be
00000010: 6156 483f 18a6 aa3d e6a0 9bbd 6be5 99bb

weight f4 [3, 8]
-0.005415265 0.2976222 0.0578586 4.4327655e-05 -0.060704354 1.3435882 0.0044629322 -0.004982139
0.354598 -0.27457237 0.07488925 0.00015218632 0.06287252 -0.21616404 -1.3551697 -0.0075927265
0.08665236 0.025953773 0.03597259 1.0498791 0.006704061 0.026398398 -0.07214766 -0.1549839
00000000: 8972 b1bb f061 983e 24fd 6c3d 75ec 3938
00000010: 21a5 78bd b3fa ab3f ca3d 923b 3641 a3bb
00000020: de8d b53e c094 8cbe 895f 993d 3494 1f39
00000030: 4fc3 803d 1b5a 5dbe 3376 adbf 68cc f8bb
00000040: cb76 b13d 029d d43c ff57 133d 7062 863f
00000050: bdad db3b 7441 d83c 27c2 93bd 19b4 1ebe

bias f4 [3]
0.059194032 -0.06131043 -0.006473521
00000000: 7175 723d a520 7bbd d41f d4bb
